b1_10000.npy (npy, 2128 bytes, 1 tensors)

array f8 [256]
0.04230946602089408 -0.06374131568248428 -0.03088243877292876 -0.0164667306495999 -0.043610771705817696 0.04582155808340775 -0.03633906146409973 0.030201123628363642
0.036268520647400423 -0.05981988422324811 -0.04106424693619575 0.060928131330484504 -0.06649641194943437 0.03560556505140294 -0.15035978833342867 0.05613035170654838
-0.03034635699660419 -0.010368111527399419 -0.037469521257755184 -0.05175353364679317 0.013792623968756322 0.041374152131818144 0.003005999156509925 -0.11998014248838156
-0.04268427653943086 -0.032966001150438275 0.018865277737089535 0.08108683045486414 0.06491830460982881 0.02551765840911009 0.05331360567803147 -0.015772843079912894
0.07208096841343098 0.033726469531796976 0.04656682671378617 -0.007130830781430769 -0.04687749387602108 0.01155380327813665 -0.01160128232701517 -0.03234258771168929
-0.06603340097967075 0.11775962745432841 -0.08482294594345535 -0.055253282791319434 0.002189179399534927 0.053002482821225896 -0.013152808898359616 -0.14623454519313323
-0.04349898657634822 -0.07851162561533649 0.07331458742574343 0.00019601852935286282 -0.0016658493135539491 -0.031762282657704914 0.016772872437511403 -0.1174851958150957
0.013895367188238507 0.04461434904980282 0.033920180463649655 -0.1650353715517836 -0.0017379851850533713 0.01439657420443347 0.16817508382788726 0.02321238721524925
0.0039988988416631635 0.05128705831460749 0.03997360585449361 0.07094725851795122 -0.09402460658140674 -0.03993004227843783 0.18143579624543005 0.053861086568595125
0.04897813359595715 -0.04000049526673673 -0.12143597187329755 -0.06629366231873232 -0.15735628836761503 0.007062109753044249 0.01677259008957738 -0.020596596714837052
-0.1336581596485494 -0.10079024977695236 -0.09428585289799157 0.05398363888713425 0.010296180351868403 -0.04176092862421556 -0.028908787471000386 0.1326105517492194
0.009143863551585944 -0.006824030055536525 -0.029452870709921593 -0.005696088671470287 0.0559615935684369 -0.0600158890661875 -0.023740678640358136 0.010195134202156569
-0.016419744648758165 0.02923436598752507 0.08074010097562263 0.16231256526822455 0.07619498052054711 -0.05794178164156734 0.025913700159271396 -0.027351849919574366
0.06730687917216838 -0.028847966827505137 0.02624103975991374 0.061942360620236434 -0.011508265697107473 -0.0632480062935636 0.008549959297749432 -0.01585441933554217
0.010661284778475895 0.08894965123099617 -0.005010224892898134 -0.06678969472960992 -0.052339488788646735 0.040137634674214245 -0.05326104221468988 -0.01202144085185847
0.08325479172210076 -0.0008432508273706805 -0.005947583261182008 0.02740988736601518 0.029810205224902592 0.11383243385685839 -0.0977004517603634 -0.01466470735225101
0.040893976526636774 -0.10561420724096005 -0.015067583943153216 -0.013676131057537034 -0.07380789361018116 -0.0879821865553865 0.0003703770115497839 0.03350583331952448
-0.028015213078536452 -0.1033374632540177 -0.006830846295697128 0.10114539952239418 0.037583069105172534 0.03308058367563005 -0.059792470357738006 -0.03700767919134149
-0.0027312926838896 0.005921959867209359 0.03216926112923537 0.0534978539547073 -0.07524134771401952 -0.05853215859333358 0.02931811523250595 -0.024904553263777256
0.06684910237244185 -0.020140751949922816 -0.03486772591335365 -0.047672280117825656 -0.01431109518578615 -0.08177496354829267 -0.006481994285642799 0.07608161646074396
0.038220509124585814 0.0366680864948265 -0.02056907058216162 -0.1020469551181582 0.009475288192060718 0.11855393253636787 -0.0638709683555625 -0.10602220721699025
-0.0011292690088735373 0.11079437159496604 -0.0015155493809388225 -0.13281093737539926 -0.11177723890269567 0.006055033369728973 -0.017395928449473613 -0.10754156303437026
0.023283866560808456 0.0807233872013373 -0.04463812084061635 0.058280174042959515 -0.00815822072293259 0.08284106774778022 0.007818625277469987 0.0782710642714456
-0.09764157558157771 -0.06431974783368152 0.04495716019548639 -0.004509450237800577 0.01035701022061411 -0.023933159829429528 0.05523586043376892 0.03467140140485636
0.0003640864842140714 0.05903045690131312 0.002339980326577608 0.06665116265788293 0.05524413151039405 0.09560126511714125 -0.08099140106026868 0.08228718723652936
0.0856171489026114 -0.05258301727278046 -0.08349956038093902 -0.0012500051905442212 0.009845294556107463 0.03998090199568686 0.0024794670740339703 -0.050495011871215405
0.01247333106605926 -0.05947273758939642 -0.02042711923692149 -0.03700761309071962 0.0011218590307356061 0.02219251288424684 0.07123184275777619 -0.08476671313737082
0.02816892497290006 -0.05391483283249006 0.03220053020747992 0.015959592525657804 -0.038289561954700395 0.07297356891130526 -0.1107733219000822 0.02113988265993716
0.03860001439626537 0.01879733932217727 0.02882358281495575 -0.03113905269016002 -0.05361671780034291 0.07363225558211531 -0.011873388343957255 0.12088622704160439
-0.0034308814968803465 -0.03752497232841777 -0.04844914244752149 -0.03473966225319179 -0.0023771436461397285 -0.1533508736454927 0.0485948342514352 0.09330367241092936
-0.13440350619914587 0.06528130503624871 -0.10587808703000728 -0.03868229186889157 0.03747468756320359 -0.0002603026150595927 -0.04409929526572455 -0.013784131470574947
-0.07011137426070724 -0.02555689336383049 0.06571081157548139 0.011770218229172088 -0.13967468879082975 -0.012781106278410437 0.02801761324067578 -0.0967948843320704
00000000: e8ee bd19 96a9 a53f d6a1 42d2 5951 b0bf
00000010: 88a9 3362 a59f 9fbf 1cc3 7296 a7dc 90bf
00000020: 8ba9 75ac 2654 a6bf 560a d75a ec75 a73f
00000030: 237d 1c91 089b a2bf 3225 2519 0bed 9e3f
00000040: f619 1c9c c991 a23f cd59 c73c b6a0 aebf
00000050: a76c 407b 5f06 a5bf d50f f1d6 f831 af3f
00000060: 3ac9 9faa e805 b1bf c81a e782 e43a a23f
00000070: 8045 c352 fd3e c3bf 4503 c911 1ebd ac3f
00000080: aba1 698b 1d13 9fbf e2a1 735f e03b 85bf
00000090: 2434 cc80 342f a3bf 854a ee6c 707f aabf
000000a0: 2c84 f9a6 4e3f 8c3f 4d9d 9c2c fe2e a53f
000000b0: 3f5c 3582 09a0 683f 6332 28c4 04b7 bebf
000000c0: 019f 94a7 b6da a5bf 255e a471 ebe0 a0bf
000000d0: 569d a45b 6b51 933f cc9f f044 1bc2 b43f
000000e0: d602 366b 7c9e b03f f4ba 5911 4d21 9a3f
000000f0: 0352 a3c1 eb4b ab3f 41cd c594 c126 90bf
00000100: 04ec fff9 e573 b23f 6816 4c87 9844 a13f
00000110: 3be0 a06b 9bd7 a73f ad2d fecf 3735 7dbf
00000120: e85d 3bae 5300 a8bf 1ec8 ca39 85a9 873f
00000130: b852 7dc1 69c2 87bf 2fbc fa28 358f a0bf
00000140: 3cbe a6a1 90e7 b0bf 9e9a b4b4 7e25 be3f
00000150: 540b c7e2 f4b6 b5bf dbb3 2b85 284a acbf
00000160: 5471 a2bd 0aef 613f 02df a534 2423 ab3f
00000170: db4b 8d20 dcef 8abf 4631 9346 d0b7 c2bf
00000180: 8255 82c9 7f45 a6bf 95a8 5f80 5619 b4bf
00000190: 7c34 50ab bec4 b23f 80e8 9058 4ab1 293f
000001a0: d903 9814 144b 5bbf 87b5 855a 2543 a0bf
000001b0: 4efd 506a e82c 913f ec3c ca81 8213 bebf
000001c0: 947b 1d9d 2c75 8c3f a7d4 3324 b1d7 a63f
000001d0: 1216 8863 fc5d a13f 60c2 bf09 e11f c5bf
000001e0: 3997 f761 a379 5cbf 2351 0f7b f37b 8d3f
000001f0: 987b 85da c286 c53f 0c6c ceef fcc4 973f
00000200: 8856 eb3b 2661 703f 66ac 561c 4c42 aa3f
00000210: 104d b2a3 6b77 a43f 3651 137b 9929 b23f
00000220: 0e52 4922 ff11 b8bf 9875 6de3 b571 a4bf
00000230: e052 99c5 4939 c73f e1a3 ad2a ae93 ab3f
00000240: e00a 0774 a913 a93f da26 fde5 f17a a4bf
00000250: 4ef8 c087 6d16 bfbf 464d 9717 9ff8 b0bf
00000260: dbee 2d38 4024 c4bf a0a3 e1a6 28ed 7c3f
00000270: b1a4 9d77 d52c 913f 224e 3235 4617 95bf
00000280: 4b5c 44e8 b51b c1bf de34 8cca 63cd b9bf
00000290: 841e ac1e 1e23 b8bf 2721 1457 bea3 ab3f
000002a0: fb76 14ef 2916 853f e218 623d b061 a5bf
000002b0: 8d14 05e3 439a 9dbf 6307 6fef 61f9 c03f
000002c0: 8f20 4e97 04ba 823f 5caf a59e 83f3 7bbf
000002d0: 92c4 e3b1 e428 9ebf e3fe f128 c854 77bf
000002e0: f2bd 6a7c ffa6 ac3f e22c 8f11 67ba aebf
000002f0: e677 61f9 794f 98bf 4310 d0bf 2fe1 843f
00000300: 7eb0 1969 56d0 90bf a7c5 5717 9def 9d3f
00000310: 6581 2a1d 62ab b43f 2b48 c77b a8c6 c43f
00000320: e381 74a5 8381 b33f 2aec 7192 8baa adbf
00000330: 5b47 cffa 1e89 9a3f 3606 8f93 1f02 9cbf
00000340: 081d d70c 063b b13f 2427 5248 528a 9dbf
00000350: 79d4 535e eede 9a3f 36b0 33ba e8b6 af3f
00000360: f00a 6c46 a591 87bf 3d6c 9176 0531 b0bf
00000370: a018 871c a482 813f d342 2c12 243c 90bf
00000380: 64b9 a76b 95d5 853f 9f19 0783 67c5 b63f
00000390: 6b3a f800 9a85 74bf c7d0 9222 2119 b1bf
000003a0: f6ef 45d1 3dcc aabf 8c72 8788 eb8c a43f
000003b0: 330a ed04 0845 abbf 22eb 797a b29e 88bf
000003c0: d484 ae9f 2f50 b53f acb3 e95c b3a1 4bbf
000003d0: 4a5e 8d39 7e5c 78bf 4fdb 4b67 5611 9c3f
000003e0: 55ad 1c02 9186 9e3f 81a8 a354 1f24 bd3f
000003f0: dc7c 1d95 e502 b9bf 83db ddb3 8708 8ebf
00000400: 6612 9227 0ef0 a43f a0c7 175e 8809 bbbf
00000410: 3fe7 1fe2 c0db 8ebf ed00 063d 3b02 8cbf
00000420: 510c 3ef9 12e5 b2bf 02ce e225 0086 b6bf
00000430: 4623 dc26 e545 383f 8d48 aa34 ad27 a13f
00000440: 74e4 d91f 05b0 9cbf e7aa 20f1 5274 babf
00000450: b8b6 1a57 a9fa 7bbf e6eb 1637 aae4 b93f
00000460: d44a 6189 163e a33f c0f1 0932 f0ef a03f
00000470: ca91 7761 1e9d aebf 8dc4 a7a7 abf2 a2bf
00000480: ee79 1998 ef5f 66bf 1a83 53ff 9f41 783f
00000490: 131d f948 7d78 a03f a086 481a 1264 ab3f
000004a0: 041a bd57 0443 b3bf fc65 d855 edf7 adbf
000004b0: c477 6a68 9105 9e3f fb5b 2847 9480 99bf
000004c0: 54e3 74d4 051d b13f 7f5e c4fb c69f 94bf
000004d0: 83ad f7bc 2eda a1bf b149 1048 8068 a8bf
000004e0: 1ad9 57ae 224f 8dbf 6c4e 123a 34ef b4bf
000004f0: 98de 8317 dd8c 7abf f894 86b6 157a b33f
00000500: 6a00 7479 a391 a33f 38b7 9ad0 28c6 a23f
00000510: 2087 d6f5 0e10 95bf f08c e3ce bf1f babf
00000520: 5b98 3da7 c767 833f d44e 0eef 8c59 be3f
00000530: 0041 4008 d959 b0bf ad8e a578 4524 bbbf
00000540: a62f 895d 7f80 52bf d5cc 941a 055d bc3f
00000550: abe6 b3c1 acd4 58bf 730a 4ae4 f2ff c0bf
00000560: b235 86e1 6e9d bcbf 526b c9a4 29cd 783f
00000570: 4b9f 18ff 3cd0 91bf ea7e 3108 d887 bbbf
00000580: 54c6 9cd5 b9d7 973f af55 0db4 49aa b43f
00000590: dfa7 54ca ceda a6bf 0416 0a23 e6d6 ad3f
000005a0: bc9e 96d9 41b5 80bf 5010 be7c 1235 b53f
000005b0: b069 ee1e 3603 803f 69db 448d 9209 b43f
000005c0: 5850 dacd 09ff b8bf c6c0 6e4d 4277 b0bf
000005d0: 8673 85f9 9f04 a73f 796c b554 8078 72bf
000005e0: 107b 7461 0e36 853f 5684 072b ef81 98bf
000005f0: 4e48 42ec df47 ac3f 80db 472e 73c0 a13f
00000600: 04d2 e88a 5bdc 373f fdd8 b773 3d39 ae3f
00000610: 6ada 3a5f 4b2b 633f be21 dbf3 0c10 b13f
00000620: 2a21 4474 f548 ac3f 9564 2213 5379 b83f
00000630: 87a2 cf3a dabb b4bf 7e8b 0fea c510 b53f
00000640: 5073 8366 01eb b53f ceef 0547 29ec aabf
00000650: d306 1129 3a60 b5bf 9028 72da e67a 54bf
00000660: 2c8f 1a11 c529 843f f575 1275 6078 a43f
00000670: 9bd1 d2bf d14f 643f 4f2d 3271 7bda a9bf
00000680: a8da 0128 9e8b 893f a06c e6ed 3573 aebf
00000690: 14d9 4bc4 d8ea 94bf 8cf6 da6f a9f2 a2bf
000006a0: 683c 41f6 6a61 523f 4031 3754 a2b9 963f
000006b0: 2a16 1403 403c b23f 4fe4 b674 45b3 b5bf
000006c0: 0b9d 168e 50d8 9c3f 1ad8 9197 b99a abbf
000006d0: 5f5a 4f80 967c a03f 5c1c d21f b657 903f
000006e0: 0749 bf80 b09a a3bf 194b f253 65ae b23f
000006f0: a383 d4f2 a35b bcbf 40af a982 b1a5 953f
00000700: 9007 ea8e 61c3 a33f 95f0 8f16 9c3f 933f
00000710: 56d5 2ce6 ed83 9d3f ba0a bb73 eae2 9fbf
00000720: ac52 f182 a673 abbf fae8 a741 90d9 b23f
00000730: 8b3f 0a35 1351 88bf ab36 ae57 66f2 be3f
00000740: 51ed 6a7a 141b 6cbf ce22 de21 7936 a3bf
00000750: bca6 a974 53ce a8bf 6eca 80a2 65c9 a1bf
00000760: 0c62 fa46 3b79 63bf e869 8f5d 00a1 c3bf
00000770: d399 ba0f 6ce1 a83f 0505 9add bfe2 b73f
00000780: 8ce9 cb53 2234 c1bf 56bf 2b8e 46b6 b03f
00000790: 1c2c 2889 d31a bbbf 1bbe 0555 2ace a3bf
000007a0: ae07 06db e12f a33f 289f ff37 270f 31bf
000007b0: 52c8 e2cd 2e94 a6bf a185 f5ce da3a 8cbf
000007c0: a800 87ab d1f2 b1bf a073 bd14 962b 9abf
000007d0: eed6 b57a 6cd2 b03f 6b7c e3f2 fb1a 883f
000007e0: 77c1 3736 dce0 c1bf fa9f c70b fb2c 8abf
000007f0: 889d 5232 a6b0 9c3f 2858 a0ae 8cc7 b8bf
