b1_117000.npy (npy, 2128 bytes, 1 tensors)

array f8 [256]
00000000: 2466 f988 acd0 bd3f bc7a 10ab 6ed4 abbf
00000010: 56d6 fabd ef22 c8bf 6e4d eeef b385 cdbf
00000020: d954 9ced 04ec 5e3f 22fe 0bde b15d aebf
00000030: cae8 a5c3 5539 cb3f 0e9e 1b48 522c a9bf
00000040: 6f8a b894 9e54 c13f 0d56 9c50 b6f6 c2bf
00000050: 688c 8081 25c1 c4bf 9fa6 da44 906b c93f
00000060: a5d1 6260 0fa7 c3bf 359a b5c5 8826 c4bf
00000070: 1ce6 8d20 9c90 a43f 8c87 778d dd26 a9bf
00000080: bf63 c1ac b4eb c2bf f1a9 f379 b71a b23f
00000090: 367f a078 5007 b3bf 0cf3 6f92 6f3f b5bf
000000a0: ede1 60dd e2f4 c23f 475e d30a 23c6 c8bf
000000b0: c599 59eb a5d1 b73f b5b9 96fa b265 bfbf
000000c0: b404 6427 da35 abbf 142f 4129 4d73 b13f
000000d0: 9cae e589 0212 c2bf 56e8 8ef6 cc5d b1bf
000000e0: 483a 4483 73aa 80bf 574a 761b a651 a83f
000000f0: ab09 a0f6 14d2 a83f 546f 489c ac40 b43f
00000100: 05b0 c76d 811a ae3f 2c87 ad72 ccae adbf
00000110: 4660 4f32 0aff cf3f 15b5 412a 8ba5 7dbf
00000120: c133 564a 56e9 89bf 8789 c13a a536 9c3f
00000130: 10d5 85c3 d97c b4bf 674b e645 f3f8 c9bf
00000140: b44c b810 bc97 ba3f c512 5392 b446 cc3f
00000150: b918 72d3 714c b3bf 9ca3 b6d3 86a6 a43f
00000160: d647 2b9a 9c2f cebf 5f4d 0da7 3ebd c8bf
00000170: 1b2d e469 4e5d 553f 59e6 82bd 5f5d c23f
00000180: 7fa1 9f56 df2a bebf e4ea 5459 f971 b1bf
00000190: 64f5 b498 eaa8 8a3f 5aa4 a377 dfe5 ba3f
000001a0: 4d08 f7ea cd2c cebf 1869 44c3 0bf3 c4bf
000001b0: a82b 1908 9284 99bf f8a5 52c3 6857 c7bf
000001c0: dfc9 48d6 f0da c73f f88b 46f6 b2fe cdbf
000001d0: 1a32 e6c4 0a87 b33f 49d6 7847 ab49 84bf
000001e0: 5c69 6ec7 b96e c93f 645a 88df 3076 a5bf
000001f0: bd6d 82e9 d96b ae3f a64b 1edb dbe2 bbbf
00000200: da55 38ad 0b2f c53f 1331 1447 583e b2bf
00000210: 3b13 bf35 5f04 babf c6da bb6b ec82 51bf
00000220: 72b7 f3b5 4ea9 b03f 2340 00c4 07ab ccbf
00000230: 4df5 13aa 2567 c53f c036 4e3a cbed c23f
00000240: e321 63db 7fdf b43f 0507 a121 877d b5bf
00000250: 1ef3 bfbd d8dd ac3f 54ae 8fa0 73fe c9bf
00000260: ccee 81ff 7f2f cebf ceb2 51df 5fbc c73f
00000270: 7e15 7b07 1763 a33f 653c 5e74 8fc2 bcbf
00000280: 1ac2 9558 62fa b6bf 0c24 920c 22ff 91bf
00000290: 61fc 9075 2410 be3f 5325 0450 1a54 b53f
000002a0: 0ee5 d73d e14f bd3f 8d43 d0b1 9bba cfbf
000002b0: c9e5 2806 7135 b53f bc44 4e83 7091 87bf
000002c0: 1f70 3f57 76c3 c53f 6896 0d21 7326 8d3f
000002d0: 3788 e091 a1e5 cdbf c78c 1cea 5f46 cf3f
000002e0: 0562 b7ec 3874 c43f c3e9 096e 36a3 c5bf
000002f0: 37bf 7a26 65b5 b93f 79cd 33ea 4e34 c93f
00000300: 3b96 8f66 dadd abbf 1344 513b 5f68 b33f
00000310: af57 944a 158d b83f cdd0 0c39 b68c c13f
00000320: def8 8826 9878 c83f ce8b 5702 fad4 c1bf
00000330: 63ac 8e3b d04d c3bf 8f68 aa3c 8f51 cfbf
00000340: e08a 15ca 0453 b3bf b294 d1aa 9c9e bbbf
00000350: 60ba 322f fb87 cd3f a701 5e80 4435 c03f
00000360: 187e 17a2 edc4 b53f bf31 fb08 966c cbbf
00000370: 4613 2b09 cd35 bcbf 91e9 e79f e205 c53f
00000380: 388b 6456 d337 c63f 1366 b635 bc5b 923f
00000390: 74c0 b26b 5747 c1bf 30eb bacf 0efb cbbf
000003a0: cf23 15dc 002c cbbf 57ea 9a7f 19b9 b03f
000003b0: e29b 9b54 7911 c23f d6be 99e3 eb16 653f
000003c0: c064 7a76 6a4f b7bf cf92 cce4 cf0d a13f
000003d0: 2823 42eb 1f09 c9bf d437 8a96 3c9f b3bf
000003e0: 7758 e786 9b40 cebf bf0d ca88 20ed aabf
000003f0: d34d 6fe2 bf0a b23f 1b16 4df9 3b6f cb3f
00000400: 6e55 7744 35ae c8bf 47bd 9cbc 7986 bd3f
00000410: aef5 a342 f9d6 ac3f 463a 6cb8 1edc ba3f
00000420: e22f b35d 47e0 b43f 826f 7c61 7781 bc3f
00000430: 1b71 9720 51ed a73f 7dd1 065c 7257 a4bf
00000440: bd03 c71b 9e16 c33f 31bd 58fc 32fc ca3f
00000450: ce6c 916a 4f28 913f b499 5a6e 68b2 c63f
00000460: 380c 1bcb fc08 89bf f158 8e11 03e8 c6bf
00000470: 2474 b725 5e64 ccbf 943c 91e2 9b90 c7bf
00000480: ec29 6633 c0cc c5bf 75d3 f310 a9e1 b63f
00000490: 9b90 5024 f09f c93f 6609 e4f2 7136 c03f
000004a0: b623 9d25 8e18 ca3f 66e9 9a24 690c 933f
000004b0: 6a2c b9cc 8165 babf 4c86 f743 3760 bdbf
000004c0: 62f5 5b87 f4f6 ccbf d178 af8b b052 733f
000004d0: 456e 3f07 7686 bd3f 54ac e5fd 1d9e a33f
000004e0: 4be0 3eb1 1d5b c7bf 00e4 e3ff 5d24 a9bf
000004f0: dcfd d1bc dcb8 93bf 76af b78e 74bc ba3f
00000500: ded7 f61a ee93 a53f 7a07 b834 7161 c13f
00000510: b38e 05ca 31f9 bf3f 6379 eeaf e21c 9dbf
00000520: eb55 c8db 3ab5 c33f 04a0 bf51 6821 c43f
00000530: a395 5005 70ab af3f 2c81 d1c9 1ae2 c6bf
00000540: 33d9 8bbb 4245 cd3f 4a65 7238 4038 aa3f
00000550: 5233 7a02 c2cd c1bf a240 c178 301a cdbf
00000560: 2785 7aa4 317f 90bf 4560 9425 3851 c9bf
00000570: 8b86 c1ef 65c5 a43f a522 eb8b b5dd bdbf
00000580: 19fa 9f5f c2e5 743f d65e 0959 99ab c03f
00000590: 5d07 5f65 9508 c6bf cc1f ade0 ba02 7bbf
000005a0: 213a aa45 2b56 bbbf f28c 3a94 cf10 c83f
000005b0: 14ac 5a17 6174 87bf 3b0b bbe7 bb8b c73f
000005c0: be17 61fa 998f b4bf 2981 4700 4964 b63f
000005d0: ca09 de6e f5c8 94bf df08 06ba 66da ca3f
000005e0: 916b a6e9 3212 b33f 18f7 681f 8174 be3f
000005f0: 4b78 d91a 90c3 71bf 066b 5444 3c11 c23f
00000600: 3828 e284 e1fa b4bf f502 313e 2efe c0bf
00000610: b227 66f1 652f 9b3f d532 6364 6c19 ae3f
00000620: dc36 360b bbab abbf 01e9 6a18 3169 723f
00000630: d0df 5842 17f0 a43f 1ef4 3d3d 247c c23f
00000640: a764 e758 3819 cdbf 8a13 e22d 90e7 aebf
00000650: 7ae7 6c8c 4ed0 c0bf 5441 501e 5779 b73f
00000660: fa55 1f8a 10c2 c0bf 836f 9bc7 d9b1 b4bf
00000670: 0c6a 3b0f 86df c03f 7921 b713 a101 b0bf
00000680: dfaf dbda 7f5a a4bf c28d e780 aa40 a4bf
00000690: 45f1 7847 5c3c a1bf 5d27 b493 bb8d c13f
000006a0: 40b4 c4e5 7775 c83f 7159 00e2 2f09 c53f
000006b0: 324e 7443 965a b3bf fb8d aae9 4d91 c6bf
000006c0: f90f aba0 9aa2 c7bf dbb9 91de eef4 b43f
000006d0: 0813 5d0e 0fc1 b2bf 250c 9a69 ee7c afbf
000006e0: 49cc 489e 7340 c03f a231 ead0 eb83 b6bf
000006f0: 7b85 28ac 8b84 c2bf 207f 320b 42dc b3bf
00000700: 2c71 dea9 8378 b0bf c0c6 6aa2 d4c1 c8bf
00000710: 4848 f556 b8b7 99bf f17f 2b44 b0e9 ca3f
00000720: 3915 db5f dee0 cabf 228f 08d1 ec51 7abf
00000730: f426 883c eefa b3bf 0376 d065 c11b 9f3f
00000740: 3ee0 9f3b b5ff c3bf f892 2a6b 7eef b23f
00000750: b4fc 7e4f 4df1 c2bf 65c1 8f85 c2c8 c53f
00000760: e479 b869 e8a0 ca3f 8627 b207 ca5c c3bf
00000770: 3c1a 5f98 75a8 c43f 61c4 10e4 578a cc3f
00000780: 66d7 421a d2df 6d3f ec13 9b8d e19a b03f
00000790: 3cb0 a214 34a9 79bf 89d8 fc26 0970 cc3f
000007a0: f36b 602a ce25 b53f b046 e185 01cd cdbf
000007b0: 8c23 15ce fc79 a33f 7b7a 753b 7dfd c1bf
000007c0: 25d1 8ee6 e0c6 ab3f bc33 4fe2 47b1 c53f
000007d0: a7de 84f9 10ca b23f b227 c572 bdcb 8fbf
000007e0: 3ed3 9761 1937 c4bf 496e 6603 df04 c8bf
000007f0: db72 7104 bc7b c33f 8a9f 49aa 07c5 cfbf
0.11646536201569596 -0.05435510481060166 -0.18856617714270624 -0.2306427880799719 0.0018873260618808478 -0.05930858455212397 0.21268722584847516 -0.0491662705442729
0.13539488088379723 -0.148154057846725 -0.16214436362597273 0.19859507905976145 -0.15353576856945242 -0.1574259724977353 0.04016578576461091 -0.04912464477435127
-0.14781816897700925 0.07072016455973774 -0.07433035798066787 -0.08299920392159893 0.14809833344931125 -0.1935466578349738 0.09304272647714303 -0.1226455556668274
-0.05314523440211741 0.068165609905176 -0.1411746190382147 -0.06783753413665869 -0.008137609904705148 0.04749793133955354 0.04847779760895617 0.07911185088636091
0.05879597153747799 -0.05797423267246268 0.2499706979422191 -0.0072379528174739876 -0.012652086394860153 0.027552205763990336 -0.08003006957536152 -0.202909859781893
0.1038777867145651 0.22090775627852657 -0.07538520252464566 0.040332997650075 -0.23582799461161014 -0.19327529103120875 0.0013039842374976188 0.14347454789622097
-0.11784168114502867 -0.06814535551977091 0.013017494950527016 0.10507008238677554 -0.2357423207559485 -0.1636671737149491 -0.024919778579981205 -0.18235501801727572
0.1863690420446593 -0.2343352987782905 0.07627932841405319 -0.009906137579586931 0.19869158017975053 -0.04191735008878508 0.059416589502883956 -0.10893034076279537
0.16549821813593618 -0.07126380667995517 -0.10162921011130958 -0.001068812255594119 0.06508342687786042 -0.2239694315944699 0.167210300489311 0.14788189265202867
0.0815353308308953 -0.083946653089722 0.056380055582826424 -0.20307774867920847 -0.2358245847316226 0.18543623356108302 0.03786537138288802 -0.11234375563638961
-0.08975805914611393 -0.01757481767393547 0.11743381376526109 0.08331455663223623 0.11450011978003635 -0.247882329772008 0.08284670257935213 -0.011507872588284555
0.170027535058467 0.014233493276786649 -0.23357028601555083 0.24433516436793054 0.15979682501235018 -0.16904335377678423 0.10042411984863696 0.19690882144605462
-0.05442698003734533 0.07581134031467256 0.09590275831973714 0.1371066835942031 0.1911802471312915 -0.13931202997545572 -0.1508121767813889 -0.24467649900617913
-0.07548551496214939 -0.10788897676828205 0.2307123165569065 0.12662559764795597 0.08503613669699239 -0.21425128401314272 -0.110195936907144 0.1642421036520543
0.17357866018672907 0.017928066995955016 -0.13498966940597124 -0.21859917777131832 -0.21228037592143642 0.06532439580306836 0.14115826255075975 0.002574406357602625
-0.09105554001361593 0.033308502845363124 -0.1955909632418067 -0.07664850878992918 -0.236346665259308 -0.05259038610258981 0.07047652509873296 0.2143321006098383
-0.19281640856813048 0.11533318381110745 0.05632761896593351 0.10492126467236415 0.08154722249599858 0.1113504994395367 0.04673245928617772 -0.039729665502281165
0.14912773472135923 0.2108215076600373 0.01675533378543719 0.17731957805990606 -0.012224173496525478 -0.178955443928039 -0.2218129810488857 -0.1841006141935152
-0.1703109980556542 0.0893808046710783 0.20019342206172017 0.12666153297329713 0.20387436710941892 0.018602030619811492 -0.10311137436035414 -0.11474938783023808
-0.22628647431694576 0.0047175308527284835 0.11533296276996292 0.038315713160806425 -0.18246813921519087 -0.04910558460864678 -0.01925988104312447 0.10443809971155624
0.042144242087871694 0.13578620027697835 0.12489615614100096 -0.028430501926430717 0.15396819812364923 0.1572695159113665 0.06185483994367338 -0.17877516607678368
0.2286761680367789 0.05121041001366196 -0.1390917312714018 -0.2273617353080271 -0.016110206283547115 -0.19779111704770194 0.04056852866848456 -0.11666426340083065
0.005101928016300516 0.1302367863415756 -0.1721369500137894 -0.006594400397098309 -0.10678358507923537 0.1880130265973104 -0.011452444577420486 0.18395184340450918
-0.08031618464255438 0.0874677301103516 -0.020297846690945844 0.2097900780027606 0.07449644283626201 0.11896521584364128 -0.0043368939492137255 0.14115098320402114
-0.08195313925003311 -0.13275697743122064 0.026547997340038605 0.05878771520074159 -0.054044575804352596 0.004494849947770386 0.040894247864741495 0.14441349973995526
-0.22733215657243486 -0.06036043701263967 -0.13135701996526078 0.09169525613856894 -0.13092238182314003 -0.0808387863466447 0.131821401059668 -0.06252485972721002
-0.039752955881197975 -0.03955586265126555 -0.03366363880602078 0.13713783943267802 0.191084849540319 0.16434286627982034 -0.07560099741777362 -0.17630933675273738
-0.18464978070380747 0.08186238225764646 -0.07325834370301376 -0.06150002516826473 0.1269669077752005 -0.08795045710048169 -0.144669970571197 -0.07757962010736863
-0.06433890244665424 -0.1934152405788634 -0.02511489897489863 0.2102566082821791 -0.20998744659861204 -0.006425786079976155 -0.07804764726474983 0.03037931617665458
-0.1562410870681123 0.07396688572277899 -0.14798895246165034 0.1701892044216137 0.20803551828517108 -0.1512692010476792 0.1613909715653835 0.2229719031907136
0.00364676509533528 0.06486329753086267 -0.006264880599854247 0.22216905978865878 0.08260811361871827 -0.23281878506764064 0.038040065914692084 -0.14054837611452684
0.054251697677872 0.1694726805712018 0.073395787160616 -0.015525322022444363 -0.157931492474427 -0.18764865556737423 0.1522135755248176 -0.24820037665199052
