w1_10000.npy (npy, 307280 bytes, 1 tensors)

array f8 [256, 150]
-0.024450325619869717 -0.14408472564072064 0.03825971464412864 -0.05860653250600125 0.05994731390023088 -0.034576248539639316 0.006046070841204753 -0.04367259119147598
-0.0492388235237189 0.03289028272296731 0.06530904578442044 -0.05649740735168495 -0.06586124107522 0.029283889106462135 -0.05206238771732733 -0.08787862364784851
0.0759831238171431 -0.06153385823863812 0.006008023345036678 -0.07635792116238152 0.05450268490035298 -0.039998913542791156 -0.11056390108024428 -0.11621141753460705
-0.003320477982240668 -0.015170854111526862 -0.0009375853111351664 0.01661016365843724 -0.07378137202190184 -0.048915396592689495 0.018775721048184292 -0.04548147207557373
0.0736360365476783 0.05174328804252529 -0.016626431048162794 -0.10897524813046114 0.09845414361225804 0.11324554017431501 -0.027868391701317916 0.038312760356966624
-0.08962897603904384 -0.03130150018789615 0.007691941875535688 -0.06298527918645012 0.05510082325794409 -0.06725309409447833 -0.043859684528058 0.0008807903392928406
0.03803561002336938 0.000608355740575274 -0.02566412487695945 0.0099851400060044 -0.013867524366532373 -0.057019320109707006 -0.03595258371450567 0.04338250254718972
-0.08281463818626326 0.0031518805022095844 0.12593438226483944 0.04155322446767993 -0.04531243659744428 -0.014653601628628832 0.08097718189212011 -0.07193300565357372
-0.09788751770295823 -0.07029831531069688 -0.014827034393340412 -0.004172405078073087 -0.01503657196520389 0.03387800940376975 -0.06796769318235746 0.02892965612841345
-0.07920274667422954 -0.00562918799539776 -0.093083100372633 -0.04197050944140962 -0.08781671127877476 0.1006897063751126 0.09263210986305379 -0.05667049885755345
0.0055033846160737546 0.021041485398722533 -0.06894388403381949 -0.08648834871872799 -0.11153686905205831 -0.012738973483907895 -0.042896034493802984 -0.010809352925983565
0.03438454306780946 -0.049908444341045494 -0.01960756067128404 0.007530873208789688 0.011585935533399148 0.05933321381779118 0.06789816318260429 0.030697246882236684
-0.11837750193761372 0.01594490953473789 0.05777116256534403 -0.06140356745342161 -0.06037384422009189 -0.026017199685957924 0.022048314225074184 -0.02077192312159119
-0.09546642608647833 0.10106565405772609 0.049772807434063 0.09900913107487547 -0.034003588704210476 0.0506860196046894 0.043683734098366504 0.04714238612695955
0.04435632140408216 0.08116913063006519 0.04386636167015359 0.009331365331238892 -0.06314562873791653 0.01800322255318231 -0.045133534236937264 -0.01859352428601557
-0.027139978991724954 -0.036930983656631326 0.044482864091617925 -0.025858553073562725 0.033282059813083256 0.035615660001423646 0.08531349378077359 0.040509830894311816
-0.012312415046841465 -0.08674862997027219 -0.1737254575457476 0.0013823683166885206 0.0697487953924758 -0.013405229666058407 -0.023095117756841515 -0.03408864578532867
-0.007685431747899084 0.04994778441424242 -0.004357654802766552 -0.020230101566699257 -0.005567825195203381 0.10341543944354069 0.0023603322387435017 0.011632303150031116
-0.049723790544774854 0.1121961493973745 0.009556635107833996 -0.057451798500357296 -0.10306264754647194 -0.019106261166655286 0.018265021699862345 0.00267039681722773
0.13826273476849993 0.09004071611841814 -0.01748593214387946 0.14836199500956 0.008742119886246581 -0.02580943875761996 -0.026707161506375175 -0.10017529468626915
0.025842830684597515 -0.016966382684975877 0.01989250573582114 -0.0710244449953151 0.09154507905728661 0.0023363930611472964 0.11888603161119951 -0.02079562394639428
-0.002501502833728357 -0.05781807733316501 0.05966105957700858 -0.06290497549802994 -0.020609860250397932 -0.06265656387847446 -0.018611005312665248 0.02978220034586959
-0.04809176897542951 0.04207761457608906 -0.08978635933260769 -0.0812348675114149 -0.049423792934284616 0.06702774224367329 -0.01316585602864881 -0.05570530905705977
-0.14180533366312892 0.02236396052108051 -0.00884007149081313 -0.0978337150301298 0.06556939746516992 0.061106086370332 0.0034123353040604078 0.1114244846420705
0.01524637523814134 0.05470028242445235 0.07030952750230089 -0.028736796081708847 -0.07478649291409753 0.13025104897172313 -0.00457866020336454 0.06265234814055416
-0.014338267656173591 0.05770748639747888 0.010447112195101431 -0.08674255082752437 -0.11672661343116555 0.01880674536861864 -0.06502952677050142 -0.04777728485691381
-0.009011233034243837 0.03148538057485653 -0.07479415820180907 0.061395135137298926 -0.00310381297170689 -0.017618730041049822 0.01332559827378235 0.060840335155459106
0.06156175561263252 0.013414985152408184 -0.03692679530645733 -0.09797755157239897 0.08435754093885531 0.02635787183704048 0.03677620050680344 0.060225059058608685
0.0223454574208136 -0.03806183791716961 0.12029714365776627 0.011620929208261148 0.00949871944562951 0.06896177671906696 -0.0040508281013587125 -0.09852993244399014
-0.018364960830220736 0.06398983074785476 -0.029879785320233165 -0.1289878782047173 0.035009017212854265 0.1448083521148554 0.037818821938650174 0.014515015682441429
0.05678455082884671 -0.0075302866215074885 -0.011138890193520245 0.11800218542184261 0.021533277795493425 0.17333617637828172 0.010491940042420054 -0.07382866363571812
-0.030458763101130444 -0.11116495926370773 -0.04205064073034006 -0.011536972461030642 0.03961380003447616 0.02804372252189811 0.014966014050036404 0.13053724226735605
00000000: 23d3 a793 8109 99bf 8d71 3d48 5e71 c2bf
00000010: e838 4dfe c696 a33f 03f6 e3e8 ac01 aebf
00000020: be7b 5e11 6ab1 ae3f a969 6461 fab3 a1bf
00000030: 5931 84c8 c3c3 783f 6745 ccfd 405c a6bf
00000040: c2ad 74c1 d435 a9bf 3b7c 4dc1 fed6 a03f
00000050: e9ec c6f7 17b8 b03f efbf c469 3aed acbf
00000060: 73f6 7d44 48dc b0bf 733b 0c88 98fc 9d3f
00000070: b5f7 31d9 eba7 aabf aac2 95a6 367f b6bf
00000080: 3fb1 d747 a173 b33f f29a 76a9 5d81 afbf
00000090: 6d14 7d7c de9b 783f 72d7 2e56 318c b3bf
000000a0: 28e6 61a2 c6e7 ab3f 5e69 15d3 bc7a a4bf
000000b0: 0801 4273 ea4d bcbf d7a1 bb0d 08c0 bdbf
000000c0: 05ee e70a 8c33 6bbf 4456 1792 e511 8fbf
000000d0: 1603 d01f 09b9 4ebf 3adb c636 4102 913f
000000e0: 1159 e303 56e3 b2bf 8edf 4559 700b a9bf
000000f0: ca6d 714f f139 933f efec 46f6 5849 a7bf
00000100: c382 c7b0 cfd9 b23f 243d dca3 187e aa3f
00000110: cd7b 67e6 8406 91bf 8237 cb46 cde5 bbbf
00000120: ea67 f86e 4a34 b93f fa6e 77e3 a8fd bc3f
00000130: 990f cc1b 8889 9cbf 405c 81e9 ba9d a33f
00000140: cf95 dcb0 ecf1 b6bf 54d9 3e0f c006 a0bf
00000150: 0a42 c5ec 9581 7f3f 3738 3ca2 cd1f b0bf
00000160: 9247 c0d3 2c36 ac3f d8ca b0af 7f37 b1bf
00000170: b15f 52cd c674 a6bf 28b6 d7d9 9adc 4c3f
00000180: fb7e 444a 6779 a33f 0d1c 4b01 42ef 433f
00000190: 1da6 1b44 b247 9abf d395 2cce 1673 843f
000001a0: 3cc1 0b9d 9366 8cbf 7002 39e6 a231 adbf
000001b0: ca60 8586 6068 a2bf 6750 513b 3b36 a63f
000001c0: dbdb a312 5733 b5bf d546 b1f5 f8d1 693f
000001d0: 447d a22a 9e1e c03f bd99 43d8 7646 a53f
000001e0: 6981 9312 3133 a7bf 40cc 1b1e b502 8ebf
000001f0: 10eb f2ab ebba b43f 26fb c892 336a b2bf
00000200: 1888 3807 280f b9bf c22c 3905 12ff b1bf
00000210: b44c 87de a25d 8ebf b820 b275 1517 71bf
00000220: f10e ad86 7ecb 8ebf f3b2 e25c 7558 a13f
00000230: 141d 67ab 5466 b1bf da01 d35b bc9f 9d3f
00000240: bf1c b896 a146 b4bf d207 7ea5 a10e 77bf
00000250: 8726 e947 4bd4 b7bf 4806 e59a 287d a5bf
00000260: 870f fcee 277b b6bf 9cc9 ecf3 ccc6 b93f
00000270: fed9 6bea bcb6 b73f 3b7e 7b66 ea03 adbf
00000280: 48f2 178f b78a 763f 224c 962e e68b 953f
00000290: 8239 2f6f 4ea6 b1bf 0e63 3bb5 1924 b6bf
000002a0: 9a77 e024 ae8d bcbf 1de5 fb13 e416 8abf
000002b0: 62d5 8e12 78f6 a5bf e2d3 76ca 3623 86bf
000002c0: 6fa4 edcf d99a a13f b461 7a80 998d a9bf
000002d0: cc99 591f 0114 94bf b1ef 4562 b1d8 7e3f
000002e0: 7f15 adf1 5dba 873f 4af6 d349 ec60 ae3f
000002f0: dde7 5326 c661 b13f 50eb be5d 196f 9f3f
00000300: 757b 67eb fc4d bebf 751f f5c3 dc53 903f
00000310: 7777 bd8b 2e94 ad3f 16ee 23d4 4970 afbf
00000320: 470e eb0c 52e9 aebf f985 23b7 40a4 9abf
00000330: ed4f 1d52 d593 963f abd5 ed29 3c45 95bf
00000340: 0d4d e8d9 7c70 b8bf ab41 ed4e 70df b93f
00000350: b39d 5148 d27b a93f dcd2 f893 a958 b93f
00000360: bdc8 dc1a eb68 a1bf 9b13 2299 84f3 a93f
00000370: 67a8 a3e2 b65d a63f 6265 57fd 0b23 a83f
00000380: cc50 9a2b dfb5 a63f cb39 8009 80c7 b43f
00000390: 641f 89d9 a675 a63f b8c8 65a7 521c 833f
000003a0: c990 50da 4f2a b0bf fda6 5ad0 6f6f 923f
000003b0: 0647 001b be1b a7bf ff3c e74a 2e0a 93bf
000003c0: e6fd bb28 95ca 9bbf d757 072e 9ee8 a2bf
000003d0: dd06 033d 75c6 a63f 5261 171f aa7a 9abf
000003e0: 8aa4 e19c 580a a13f baf6 dc3d 373c a23f
000003f0: f127 b2e9 1ad7 b53f 1012 b75d b4bd a43f
00000400: 0e0d b05f 4037 89bf aef3 b180 2835 b6bf
00000410: af20 52c3 a23c c6bf ce5c 84ad 12a6 563f
00000420: 7065 259b 0edb b13f 48b6 1678 3374 8bbf
00000430: 4b03 da1d 3fa6 97bf 6136 a025 1174 a1bf
00000440: b2b3 3460 c27a 7fbf 8137 2289 c192 a93f
00000450: b29c d70d 55d9 71bf 84b3 7e22 33b7 94bf
00000460: 01ce f8b1 49ce 76bf dfbc 4f2a 6f79 ba3f
00000470: 9b37 bdb8 f955 633f 6432 da4c add2 873f
00000480: 1428 728c 6575 a9bf 451b 6608 e3b8 bc3f
00000490: 7ece fbd9 6d92 833f be92 4f77 526a adbf
000004a0: bdb9 a64c 5062 babf 0840 707b 9790 93bf
000004b0: 8551 72db 10b4 923f 542c ea5f 3ae0 653f
000004c0: 9009 0be2 97b2 c13f 897a 098b e80c b73f
000004d0: 54ca ca0a d5e7 91bf 2e87 449e 86fd c23f
000004e0: 27b8 1278 63e7 813f b980 911d ca6d 9abf
000004f0: b99a f444 1f59 9bbf b670 8b8e 16a5 b9bf
00000500: 0c72 8102 8b76 9a3f a6b6 0dab a25f 91bf
00000510: 638b 4876 b35e 943f 96af 7874 a82e b2bf
00000520: e928 a990 7f6f b73f f42b 3979 c523 633f
00000530: b2a8 b8a1 506f be3f 90ab ffb2 724b 95bf
00000540: 892a 931b 087e 64bf 0fef 86be 549a adbf
00000550: 1ab7 74f7 e48b ae3f 5d0c 855c 8a1a b0bf
00000560: 889a 004f c01a 95bf 54df bcb4 420a b0bf
00000570: 6281 a76c c30e 93bf f026 f4a1 397f 9e3f
00000580: 8a9a e9fd 7b9f a8bf 41f9 fe74 328b a53f
00000590: 57e0 f524 3dfc b6bf bca4 41eb cecb b4bf
000005a0: 1814 984c 134e a9bf cb7d dce8 ba28 b13f
000005b0: 31fe 8848 b3f6 8abf 962f 3a01 6885 acbf
000005c0: 02a2 3d5b ad26 c2bf ab34 30fc 93e6 963f
000005d0: 4729 944f be1a 82bf be26 805e a10b b9bf
000005e0: 7338 bbf1 27c9 b03f 1121 1805 4c49 af3f
000005f0: 48eb 1591 2ff4 6b3f a4e7 82a5 5086 bc3f
00000600: 0c2e 3ed8 7d39 8f3f 10a2 30e8 ac01 ac3f
00000610: 5f37 3821 ceff b13f 7977 73bd 2d6d 9dbf
00000620: 3ea3 3f25 3525 b3bf 2437 cdfd 10ac c03f
00000630: a9c0 53bd 12c1 72bf 6502 48fa fb09 b03f
00000640: e904 51b5 615d 8dbf bb81 9fed d58b ad3f
00000650: 498e b9a9 4b65 853f 51d0 f982 c234 b6bf
00000660: 127b 429b cbe1 bdbf adac 3551 1342 933f
00000670: deef c06a c6a5 b0bf 627c e7a7 4376 a8bf
00000680: a000 6e39 7b74 82bf c403 be0f da1e a03f
00000690: 549b 68bf b525 b3bf 96ad 18e3 2e6f af3f
000006a0: b9ad 9ae6 2a6d 69bf 561f 4bf5 a40a 92bf
000006b0: 8fc3 4886 734a 8b3f b76e 8ae3 7626 af3f
000006c0: abc9 14be 0585 af3f 1e1f 0cd4 5079 8b3f
000006d0: 7ae8 5fa4 11e8 a2bf 19e0 be8b 0e15 b9bf
000006e0: 82dc 80af 7498 b53f b305 21d6 8efd 9a3f
000006f0: d44d e584 54d4 a23f 86df 1ca6 d1d5 ae3f
00000700: daa1 5843 bae1 963f 29e8 285a d77c a3bf
00000710: 33f4 cf29 cbcb be3f e95b 30b7 b6cc 873f
00000720: f99c fb8a 1074 833f d5b4 ae9f 7aa7 b13f
00000730: 080d 79e3 9997 70bf a226 86f5 4139 b9bf
00000740: f7e9 a1a8 43ce 92bf 3daf 5636 a361 b03f
00000750: 2030 0c73 ce98 9ebf de1e 3cbf ac82 c0bf
00000760: 3816 fdaf b3ec a13f b3ae 4280 1489 c23f
00000770: 02ac cc16 fd5c a33f 1090 416d 0cba 8d3f
00000780: 61b5 7459 dd12 ad3f 2856 4dec 13d8 7ebf
00000790: 535d c288 fccf 86bf a94b 3e27 6435 be3f
000007a0: 641a a1cf d10c 963f 8113 613c e12f c63f
000007b0: 458e d45a cc7c 853f 9da2 d26f 6fe6 b2bf
000007c0: 5278 95fd 9430 9fbf 28b1 7f88 4e75 bcbf
000007d0: 43e1 6c5d a987 a5bf a3e0 513b b2a0 87bf
000007e0: 8699 3c8f 4248 a43f 7bcd 5b5c 7eb7 9c3f
000007f0: c7ca 2b67 80a6 8e3f a762 39c1 71b5 c03f
