w1_117000.npy (npy, 307280 bytes, 1 tensors)

array f8 [256, 150]
0	0xbfbe9066e0808416	-0.11939089756971585
1	0xbfc8e7f6e2918f36	-0.19457899153632646
2	0x3fb83ef1cf3359fb	0.09471045788391301
3	0xbfca9dc81d119bc8	-0.2079401151597422
4	0x3fc9dddcc191806e	0.20208320094662063
5	0xbfc056cc13b9820e	-0.12764883959881995
6	0x3fd308a09bd3b150	0.2974015733477886
7	0x3fcfdf6c2a8ae5e0	0.24900581433557445
8	0xbfb387cdb8391e7e	-0.07629094836840442
9	0xbfca8c890547cfb0	-0.20741379506909885
10	0x3fa4f981a4f747fa	0.040966082942432494
11	0xbf9651eb1d68098e	-0.021796868963073694
12	0x3fc127ac6efb70d8	0.13402324122478748
13	0xbfb2f0341cb85f3a	-0.07397771550347168
14	0x3fbb6aa1a9ec7a28	0.10709581755188735
15	0xbfc7fa623f266a43	-0.1873286064481637
16	0xbfca1e9a94a99bf3	-0.20405895480072864
17	0xbfc59683208ca065	-0.16865576829264053
18	0xbfc5f57c4914574e	-0.1715541226228034
19	0xbfb9b09d5bfe24f6	-0.10035117622296127
20	0x3fdd7a852d9fe01c	0.4606030412246598
21	0x3fde2d1b96bee77c	0.4715031597257775
22	0xbfb9f51f59bb254e	-0.10139652195643586
23	0xbfb55c5e59ab7ab8	-0.08344068230824575
24	0xbfd0761f767c8271	-0.257209649762479
25	0xbfc6b62929566e4e	-0.1774341060489512
26	0x3fc0c1ba0100f23c	0.1309120659733639
27	0x3fd2aeddbc157684	0.29192298286020724
28	0x3fb01153554ada23	0.06276436645826115
29	0xbfbd4c388ac97310	-0.11444428814270347
30	0x3fd037e509c518a0	0.2534115405472992
31	0xbfc6790ff9ebc1ce	-0.17556953147096838
32	0x3fd6ad20fdf3d87e	0.354316947937498
33	0xbfda1b5f2ab6ac5b	-0.40792063876387424
34	0xbfa26af133607366	-0.03597215416105008
35	0xbfb7873c93e265f2	-0.09190729723413663
36	0xbfc78ad81c0e49c6	-0.18392468805229906
37	0xbfca45c4d5c0dd39	-0.205254177448049
38	0xbfd2e97455b8cd21	-0.2954989277961478
39	0xbf8677b1d35d531b	-0.010970486891588352
40	0xbfc8952aaf20f65e	-0.19205220748146962
41	0xbfc4d97a19eb6d7b	-0.1628868700562228
42	0xbfb052a15f346a0b	-0.06376083921751545
43	0xbfc183d80422d2b5	-0.13683605386690592
44	0x3f757ae7642166a8	0.005244163390750657
45	0x3fa4f4e83862d62e	0.04093099296862267
46	0xbfa34795562c70da	-0.03765551258968154
47	0x3fa9d6c2282b3889	0.05046660175649815
48	0x3fcb6e1665deb443	0.21429710363500662
49	0x3fcfc188f6d95747	0.24809371998952143
50	0xbfd52a4322dd915c	-0.33070448307832634
51	0xbfd5835b37a7a2b9	-0.33614235339204473
52	0x3fc87eb11ff120ec	0.19136632976211077
53	0x3fa494bfbacb175c	0.040197364379806116
54	0x3fc2a8e002882405	0.14577865718482044
55	0x3fc127664e2f52a4	0.1340148813020693
56	0xbfccb5acbbc8dcb5	-0.22429427308245456
57	0x3fbdd9a7e5d715bc	0.11660241471607596
58	0x3fc294a0106588b9	0.14516068268409812
59	0x3fb773db036825c4	0.09161156495260686
60	0xbfd3a87a1b722a89	-0.30715801887769395
61	0x3fb1da235ed7bccb	0.06973477426048473
62	0x3fb76900e87cd6a1	0.09144597698181169
63	0x3fd30e2390757e3a	0.2977379713756566
64	0xbfc14bceb1574980	-0.13512595805384464
65	0xbf73d34b38b06185	-0.004840177377467452
66	0x3fa6305e374952b8	0.04333776879199064
67	0xbfa6ffb3c10f1fc8	-0.044919602696210925
68	0x3fa6af3236906d4d	0.04430539051119329
69	0xbfad06433ec0401d	-0.05668840542796281
70	0x3faa94be6fa3a46d	0.05191607582839528
71	0x3fd18a3e756e33d6	0.27406274288005983
72	0x3fc7d8dabc75e433	0.1863053722588873
73	0xbfd69d523c67cb69	-0.35335212611169325
74	0xbfd0dcb4f1df66cc	-0.26347087498070887
75	0x3fc1b1f0e8fab03d	0.13824283004703544
76	0xbfdf05b7eb1179ae	-0.48472402530560543
77	0x3fc1b5331ea03457	0.1383422755756409
78	0x3fd3f29f0d06d7ce	0.31168342849866526
79	0xbfd5e2870358379c	-0.3419511349355788
80	0xbfc006c980890dda	-0.12520712638989445
81	0x3fd45de6fd95b709	0.31823134197371467
82	0x3fc2bd7f5051025e	0.1464079992456559
83	0x3fd5e8cc0fe5c0c0	0.3423338084458116
84	0xbfcceeb95ccd991a	-0.226035280527136
85	0x3fa9e577144016f9	0.05057880518147146
86	0x3fc86e15d53b0e67	0.19085953628210747
87	0xbfbc441f1edcd6cb	-0.11041445258600928
88	0xbfa59fd0fcd7b1ed	-0.04223492704827323
89	0x3f9b79d9b5e4a9ae	0.02683201000869822
90	0x3fcafe38ae1230bf	0.210883221622117
91	0x3fbc8500b3aac720	0.11140446077731925
92	0xbfcbee6fcc144f21	-0.21821401085673478
93	0x3fb75f4fddb39ede	0.09129809534681096
94	0x3fd668569ebf9f20	0.3501183080938848
95	0xbf91e3dabbafc36c	-0.017470758157233687
96	0xbfd664e8120a5a7c	-0.34990884553682355
97	0xbf9e42d0fad2cb48	-0.02955175906090382
98	0xbfcbf74884493bd2	-0.21848398646622386
99	0x3fbe177afeac1cdd	0.11754578321061922
100	0xbfd1c4d83f3baf99	-0.2776394479285443
101	0xbfd3317330d13070	-0.29989318625735617
102	0x3fd92b0e56a3a70f	0.39325293026796343
103	0x3fd2702ffe900667	0.28809738025311166
104	0xbfdbce9be35966f3	-0.4344854088027283
105	0x3fdce4dee84795f6	0.4514691608768254
106	0xbfcd26f34010a03d	-0.22775116565867562
107	0x3fb68ca9cb45e6ca	0.08808385098191276
108	0xbf9956caac207bb0	-0.0247451465185084
109	0xbfa5fad3a90e28fa	-0.042929281603464944
110	0x3fd7ba9618706061	0.3707633246099303
111	0x3fd0374d34ba0cd0	0.25337534092996084
112	0xbf90a237ac7c0b97	-0.01624381056081922
113	0x3fb06472f3a54b0c	0.06403273056393405
114	0xbfad858215f540b6	-0.05765921133081646
115	0x3fb54cddfebf6b00	0.08320414990832248
116	0xbfd50bf625f9c060	-0.3288550730567348
117	0xbfcad49760a8b889	-0.20961277217560717
118	0xbfb8c514633ac4bb	-0.09675719664189135
119	0xbfbb995c658d72f3	-0.10780885199842398
120	0x3fd2fc974862373c	0.29666692799297656
121	0x3fb2e2e6cf44ee51	0.07377474365505889
122	0x3fb71a5bcd1e4d64	0.0902459502961413
123	0xbfc0a4b1528d5efe	-0.1300260212981285
124	0xbfb7fde15abf98b1	-0.09371765580690085
125	0x3fa8ab58f7e804d9	0.048182277929308355
126	0x3f9bf94d7c49676e	0.027318201742992647
127	0x3fb5cde5ebb7e1c1	0.08517300610390689
128	0xbfcf60fe93567d27	-0.24514753526907748
129	0xbfb413392ff91615	-0.07841832562652258
130	0xbfa0bd2d2a4bddef	-0.0326933015948575
131	0x3f735e4b6aff0617	0.00472859821451401
132	0x3f9a048c8cf617dc	0.025407978156657282
133	0xbfb240265891b5a4	-0.07129134809812016
134	0xbfc3e833b56e17c1	-0.1555237422837177
135	0xbfc859b35ae7c761	-0.19023744524707367
136	0x3fc4e054399db610	0.1630959779098906
137	0x3fb6e8c43a01c69b	0.08948923507866839
138	0xbfcdba3127abe5b3	-0.2322446292599075
139	0x3fc0344301d059aa	0.1265949019295481
140	0x3fc6d2a4c02fc8f6	0.1783033312236239
141	0x3fd1202f8804eb5a	0.2675894573509844
142	0x3f91ef5589fe8a07	0.017514549777510904
143	0x3fcac068f051f3d5	0.2089968846738929
144	0xbf928d4c889848cd	-0.0181171377535712
145	0x3fc11629e9dea445	0.13348888320368438
146	0x3fd0e590e4bda021	0.2640115960880412
147	0xbfb1016c7178c58a	-0.06642797251040214
148	0xbfe1db4679fe19ce	-0.5580170042674639
149	0xbfbb99d1b3b9dd96	-0.10781584394304952
150	0x3fcdddac1db9dde9	0.23332740260569487
151	0xbfe085778d55efcf	-0.5162923584425644
152	0x3fd0d6868df90335	0.26309360374948493
153	0x3fa5c81e930f1a03	0.042542415095841356
154	0x3fb258a2740763bf	0.07166495640502911
155	0xbfb40b0eef0f4e71	-0.07829373680515929
156	0x3f9385fec7926bee	0.0190658387478883
157	0x3f9d5823d711dddb	0.02865653991872628
158	0xbfb1f2871c736515	-0.0701069302043787
159	0x3f964d982fffd06d	0.02178037445988006
160	0x3fc1f765275308c3	0.1403624002469482
161	0xbfc3e28b7918a7ad	-0.15535109913736048
162	0x3fc7dbbd5e59391c	0.18639342409955695
163	0xbfd58f769ed5ea29	-0.3368813086632679
164	0x3fc20d0870ecd975	0.1410227347748322
165	0xbfa177e1028db524	-0.03411772876902777
166	0x3fd11f7cf1ce8c71	0.2675468789477185
167	0xbfa1ed0bb3b21c5b	-0.03501164024879052
168	0x3f9e184e2a10994d	0.029389592473444016
169	0xbfc4b6edce71a4e7	-0.16183254795331622
170	0xbfd356625142ff87	-0.30214746413911836
171	0x3fb1f0494919a5e0	0.07007272753403226
172	0x3fc266986a5bc1ea	0.14375596230776405
173	0x3fc675fd16614ea5	0.17547572701243044
174	0x3fb3e7dba57562c2	0.07775662221446125
175	0x3f72cdb5b3450720	0.004590711371123907
176	0x3fb7f3cfb9721507	0.09356401708108218
177	0x3fd34bb6beba903e	0.3014962065301495
178	0x3fbda76ffb6c1ebe	0.11583614242783377
179	0xbfb1d989e52b4cf2	-0.06972562642049576
180	0xbfe04329cd9a78ed	-0.5081986442271763
181	0x3fb2832184e88de5	0.07231339926561693
182	0xbfc5913a9a0f00b5	-0.16849453470604706
183	0x3fd242f7aec5fff0	0.285337372471985
184	0x3fbd28117fbc1d2d	0.11389264458204158
185	0xbfbd22e8d9ad1bd2	-0.11381392778740398
186	0xbfbbbe1902deec82	-0.10836941070640374
187	0x3fc5cb8fec8d89e6	0.1702747254413019
188	0xbf97d44935752abd	-0.02327074421672636
189	0x3fcfab1e08883891	0.2474095861111363
190	0xbfab09b2217f2c5f	-0.05280834826370361
191	0x3fbf224f5240962a	0.12161727674591619
192	0xbfc5ffcd0259d6b4	-0.1718689214209711
193	0x3fd7f61ba049eed0	0.37439623501971386
194	0xbfa02767094f4995	-0.03155061710971833
195	0x3fc287edcc337c19	0.14477322073705137
196	0xbfb36cbd556c7def	-0.0758779843858901
197	0x3fc7cb3c7ef049e3	0.1858897800271527
198	0xbfa8298c3a5aef9e	-0.0471919842943571
199	0xbfc0ff511d7fcf3a	-0.13279165211099003
200	0xbfd62414e6b85309	-0.3459522488713423
201	0xbfd021382d6ad436	-0.252027553894837
202	0xbf7766ee0030051a	-0.005713395777094088
203	0xbfcfd3367424580c	-0.2486332003688293
204	0xbfc549b084dea75c	-0.16631132591038067
205	0xbfc2543bcbb2ccfc	-0.14319560476506143
206	0xbfd2be0323f2cde7	-0.29284742842284434
207	0x3fcf5a69beb508f1	0.24494668781159804
208	0x3f98b79272e610c9	0.024137771857127874
209	0x3fc2c9d2419278cf	0.1467840976883452
210	0x3fb10b81389990f5	0.06658179885704725
211	0x3fd307d94443630e	0.29735404650050234
212	0xbf9cd50fbec571a6	-0.02815651513934516
213	0xbf20031fe5dd7834	-0.000122163432872692
214	0x3fa4853b14a199c4	0.04007897021147103
215	0x3f351542ff46a64a	0.000321701866847411
216	0x3f48590547d7b877	0.0007430339607574905
217	0xbf8bba533b395ccf	-0.013538980717540032
218	0xbfd731d8fc7cc36e	-0.36241745621651134
219	0xbfb8eccbc8c8ad2c	-0.0973632207102823
220	0x3fc6841f9c9a4478	0.17590708872424776
221	0xbfccbaa0a8c44137	-0.2244454216056597
222	0xbf20519819594e18	-0.00012450200726964243
223	0x3fda10eb7a3d2a51	0.40728270470996103
224	0x3fc38c5ea7ef91fd	0.15272124481192853
225	0xbfcf26f6f8c666e3	-0.2433766092988697
226	0x3fc7d0cc2a69c590	0.18605949469524008
227	0x3fa33ad7c06a7c5f	0.03755830978229179
228	0xbfd167ead258eb04	-0.27196760694248234
229	0x3fc1ae783f24fe18	0.13813689311244626
230	0x3fc4c2d1cde23165	0.16219542076977259
231	0x3fc07eca85c7a116	0.12886935741631395
232	0xbf674dae6506c2ff	-0.002844658484001505
233	0xbfa94cbdf8b994c5	-0.049413620578698615
234	0x3fc64997c314e56f	0.1741208746478082
235	0xbfcebca36860c0b1	-0.2401317844064628
236	0xbfbe02caf95a4e8d	-0.11723011577333349
237	0xbfc11ad07fb6c477	-0.1336308120349121
238	0xbfafaea167429d95	-0.061879199843413314
239	0x3fc5d11246e19649	0.17044285260196748
240	0xbfcd307f0e624624	-0.2280424900277903
241	0x3fb484987acc406b	0.08014824865336016
242	0x3f7cb1849de0b518	0.007005231889747131
243	0x3fd48e755593ceea	0.32119496686139704
244	0x3fa9c6aae95ec471	0.050343838679858595
245	0x3fdb5e818eb88e70	0.42764319360342196
246	0x3f9934c90762612c	0.024615422321035016
247	0x3fbd0b9ed9ce2d5c	0.11345856492532874
248	0x3fc2f2e2b8b5dca7	0.14803728121817025
249	0xbfc26c5963856ee0	-0.14393155440745087
250	0x3fbd27952032d4d5	0.1138852313623205
251	0xbfa4016d0c9a86dd	-0.03907337931492603
252	0xbfb81645db65a59a	-0.09408985716222276
253	0x3fc846d620fce61c	0.18966175661789542
254	0x3fc22eab3e87d531	0.14204922250034138
255	0xbfcdd54a10c9905c	-0.23307157344527496
