w3_117000.npy (npy, 10320 bytes, 1 tensors)

array f8 [5, 256]
-0.06648790045882294 0.3866157368635522 0.39553825601693754 0.43396189910155397 0.11761880592988296 -0.16937074504205762 -0.2891036445064691 -0.2609391391183981
-0.37361874884181095 0.31298328992829066 0.3974483877069932 0.38459230908263087 -0.021532478478241506 -0.22207981081412634 0.2982667243614371 -0.2783008214016433
-0.17222667103813108 -0.2582922787604584 0.034464380178947325 -0.11817435866817859 0.036934402792200595 0.04916333202211379 0.0519043499878106 -0.3381824763549706
-0.06364596407020409 0.3005698027218147 0.014784310954977231 -0.2993775601161199 0.1811232710254984 -0.3670365404403426 -0.04984336750021486 -0.11565600346220845
-0.07408628341992732 -0.3153683520111167 -0.16165893035923062 -0.2854875638810863 0.2620956389004355 -0.19793543193453147 -0.028155630025059424 0.3578688299396758
-0.24785908347983665 0.34444763572268516 -0.1763523886723973 0.14405588175950235 -0.24815282465912425 0.26719873218949136 0.02056845042995856 0.004856856922717314
0.08939479107081749 -0.10704588111173068 0.06978229764343362 0.13444550257162546 0.19242443101310502 0.11838396568314141 -0.15553578680879382 0.16642408683100804
0.19463157065696166 0.012157938652660768 -0.13369595503148998 0.1748123517445054 0.17610711260435574 0.17978310321681196 0.11608990652732397 0.1235920642344456
0.3576919590846126 -0.44344175943087294 0.3620511255461391 0.022435259527579826 0.0073921126772403915 -0.15735908695975875 -0.2994082995568951 0.10134943724613403
0.24872854877015407 0.21821100458511508 -0.13664187682731593 0.13933750665145714 0.020486696868214707 -0.0946035675601998 -0.029707862971225196 0.046850506298852915
-0.034465170730476516 -0.03126966655548187 0.24417515681936697 -0.16147849567162828 0.05755586544415155 -0.22353668387111528 0.1543671152363773 -0.21184451868997312
-0.20071137108179307 -0.16756869432697058 0.042153471502486745 -0.24151516124905703 0.36857781205243223 0.1692058003538928 -0.22901015684742781 -0.16240719017297225
0.47045038821101637 -0.13385110247206491 0.22917373688428783 -0.36991736565052197 -0.033671087756082796 -0.17118690729840944 0.0017996700971587727 -0.08304153345053958
0.07028590949684684 0.09538647158868092 0.2161088066646814 0.2558985702878273 -0.1797036144663153 -0.004695042853766463 -0.23378770237848082 -0.29709392706207105
-0.09289065701067788 0.16887115829624272 0.4441323661292128 0.13804920824231304 0.15421097012920254 0.1406167721000507 0.3238304964264632 0.10949309092301068
-0.1432778420056651 0.12974887749822078 -0.07347867971649345 0.5245352196555453 -0.29098192827428 0.061002897880929656 -0.18947508869813715 0.40982684823318877
0.0038111650639496082 0.2359928576748232 -0.02669935021009448 0.3124494752722785 0.03783057332520462 0.005529001949669875 0.023546095138896165 0.04095054019331249
-0.3446835220693508 0.29589147500957935 0.34841688864992626 -0.11386641817883288 0.1580920833628273 0.20121735571796073 -0.0931677476715063 0.031798576037970185
0.040776132285973564 0.04074709857789976 -0.16603165340138865 -0.20085498928252704 -0.13325476324306973 -0.00964338310542385 -0.165634867868086 -0.2734744466649639
0.1529847205482688 -0.13035544569400145 -0.3160958875222576 -0.02443433130595546 0.18992599177542183 -0.2885287784776393 -0.002652713620783171 -0.1629667869136893
-0.007789059554848069 -0.21093522308852242 -0.05742666698228633 -0.07833832359371018 -0.17605784654548712 0.25530004487815916 -0.22968067103938783 -0.09754309882013251
-0.16563860085106683 -0.09500889811166616 -0.00042031209725523983 0.08834168367196478 -0.0709229806404766 -0.17124364005932005 0.15258387743905721 -0.17537018538722135
0.04630441553742667 -0.15460324276006362 0.06470656585293684 -0.190483965833869 0.2127015194900124 -0.4441990338219798 0.3528689342917117 -0.2363931404003495
-0.3080171124271859 0.14092322977928554 -0.04416750937001394 0.16372861773334946 -0.13744636984168715 0.27909371859742205 0.22156141642362984 0.1916616791997049
-0.14135182778055036 0.27587038067716346 0.23953982332768228 0.016126295797898753 -0.0556724478751101 0.1687525126370733 0.05752034839121658 0.10037968795160694
-0.008159300143701382 -0.10279592893276672 -0.20499554388029903 -0.13814662082940835 0.0753962414209013 -0.1413372969046685 0.22751011246238953 0.0378496107807861
-0.1831992276798521 0.2809565364905928 -0.0737257890375971 -0.013480251237800186 -0.18401064935670275 0.021693799052684315 -0.22742599442268374 0.02246860004144443
-0.026687490020343926 -0.46370080677525616 -0.1428024718109334 -0.13630886041006274 0.3193775519639202 0.42222502273757034 -0.09048603739563436 0.17933500812193562
0.01106793778745522 0.024894019255087222 -0.25393837408747394 0.002389768545325105 -0.05342568813243596 0.32913958406090954 0.3760302273115054 0.3374015588695482
0.19930515322658093 0.15670863671899682 0.588717560945399 0.1512413264959896 -0.4428346554123776 -0.2586250177842694 0.25812034050140176 0.20325458961339887
0.16779903419565553 0.003562474877001674 0.23499669229866435 0.20229911372764028 0.05489114570785136 -0.13513297548945075 -0.07739830369066318 -0.23252628542874879
0.24919461410280722 0.04766662828167509 0.05445859510412825 0.0672243568632186 0.22577338625366253 -0.284287298064914 -0.21036279854109222 0.2701360200382491
00000000: 9ae3 0cde 5905 b1bf 5eaa 7cee 4fbe d83f
00000010: 3f37 7ab0 7f50 d93f 7d7a 1621 08c6 db3f
00000020: f908 dd1c 441c be3f d069 6dc9 f0ad c5bf
00000030: 0ad2 9392 ac80 d2bf 6fa2 3013 3ab3 d0bf
00000040: 4bac dc9c 5ee9 d7bf 87ef 9b10 eb07 d43f
00000050: 6c2a c35c cb6f d93f bc64 730f 299d d83f
00000060: eba6 762b 9c0c 96bf 8d36 467a 1c6d ccbf
00000070: ca83 a750 cd16 d33f ffad 973f aecf d1bf
00000080: e1c9 cd07 860b c6bf 9378 8556 dc87 d0bf
00000090: c9b0 7db3 50a5 a13f 47a2 b4bd ac40 bebf
000000a0: 4df9 2de8 10e9 a23f 740d 65ae ef2b a93f
000000b0: 7481 6ffb 3493 aa3f d597 011d c8a4 d5bf
000000c0: f233 3416 1a4b b0bf 51be 3620 893c d33f
000000d0: 803a 5da0 3c47 8e3f 77b8 767f 0029 d3bf
000000e0: 00ae cc1e 0c2f c73f 4c35 68d4 867d d7bf
000000f0: 4bff abe2 1185 a9bf accc 74c0 a19b bdbf
00000100: 1aeb 5e94 51f7 b2bf c231 85bd fe2e d4bf
00000110: 00e7 7f65 3db1 c4bf ac2c 92a1 6d45 d2bf
00000120: 261a 60c9 2cc6 d03f f170 70bf f255 c9bf
00000130: cba5 9f58 d4d4 9cbf fd50 36aa 52e7 d63f
00000140: c8fd c7b0 d8b9 cfbf d542 a718 6e0b d63f
00000150: cbaf f50e b792 c6bf 780c 7a52 6c70 c23f
00000160: 4015 29c5 78c3 cfbf 7956 12b6 c819 d13f
00000170: 794b b457 e50f 953f 828d 4f9a c8e4 733f
00000180: 50f8 14b8 93e2 b63f 0be0 8bde 5b67 bbbf
00000190: 8be1 37ae 40dd b13f 5cd8 519e 8235 c13f
000001a0: 7c8b 131f 5da1 c83f 54d9 fa5c 694e be3f
000001b0: 66c7 d9be 98e8 c3bf 1759 1a6d 624d c53f
000001c0: 57d1 5ef3 afe9 c83f 311a 33e7 42e6 883f
000001d0: c7de 3bf5 f21c c1bf d5f9 d64a 4060 c63f
000001e0: f445 9d88 ad8a c63f ce44 58fa 2103 c73f
000001f0: bf38 ee6f 11b8 bd3f 7a9c eec1 baa3 bf3f
00000200: 90e0 93d0 6ce4 d63f 52ec 9b8b 5961 dcbf
00000210: 93d7 ec7b d82b d73f 38fc cac7 44f9 963f
00000220: 8c4c 2723 3147 7e3f 183c 1cb2 5724 c4bf
00000230: 8adc af6d 8129 d3bf abad 7066 09f2 b93f
00000240: 3151 464b 56d6 cf3f 0f02 2994 56ee cb3f
00000250: 8a62 1e24 7b7d c1bf e34b 16b9 cfd5 c13f
00000260: 044c 35f4 76fa 943f 3688 c17c f037 b8bf
00000270: e3f3 94ef bc6b 9ebf 2290 b520 cafc a73f
00000280: 52e3 463a 6ba5 a1bf 7adc 6ce6 9302 a0bf
00000290: 0c76 84ac 2141 cf3f ab5d f5cc 53ab c4bf
000002a0: 6a1c 8d5f f677 ad3f b963 579d d99c ccbf
000002b0: 3a51 c237 4dc2 c33f 281e ce9f b81d cbbf
000002c0: c5a5 5d03 e9b0 c9bf 8adf fb16 e472 c5bf
000002d0: 8437 08cb 2395 a53f 54c4 8603 f8e9 cebf
000002e0: baf8 3264 c796 d73f f11f 6821 89a8 c53f
000002f0: b646 0e6f 3450 cdbf 39ce 3641 c2c9 c4bf
00000300: ba6f f0f1 db1b de3f 0d56 d36d 0822 c1bf
00000310: 7693 82a4 9055 cd3f f940 ece2 b9ac d7bf
00000320: b85b 7739 563d a1bf 83ce 2cdc 73e9 c5bf
00000330: 4b28 7f0d 5d7c 5d3f ca37 61be 3542 b5bf
00000340: 3d98 a8e2 41fe b13f 9d47 f46f 3f6b b83f
00000350: 6e4e 8010 74a9 cb3f 17ae 9e65 a460 d03f
00000360: 678b 8d2d 8700 c7bf 27f7 29f8 1b3b 73bf
00000370: 5516 f663 c1ec cdbf 7298 243f 9603 d3bf
00000380: 17fe f69d aec7 b7bf 365c 0ff3 919d c53f
00000390: 2eaf e728 aa6c dc3f c8d8 51b1 98ab c13f
000003a0: 7ad6 b160 2fbd c33f b22a b8fa baff c13f
000003b0: ba57 e68b a3b9 d43f 2cfc a63c bd07 bc3f
000003c0: d1f0 d3a6 ed56 c2bf ba16 c678 9c9b c03f
000003d0: bfe9 55ae 7fcf b2bf eea9 c015 fec8 e03f
000003e0: 2f90 6aaa 729f d2bf 673a b896 c53b af3f
000003f0: d1be ae3e b840 c8bf 97cb 8b63 9a3a da3f
00000400: d1f5 e5a9 9738 6f3f 02c7 e692 0335 ce3f
00000410: f83f e80f 1357 9bbf 5298 7c15 2cff d33f
00000420: 78fd 7066 875e a33f ff87 da28 94a5 763f
00000430: c1be 47b2 771c 983f d582 c41d 78f7 a43f
00000440: 5a82 b079 4b0f d6bf c034 15cc e2ef d23f
00000450: 4e08 8859 764c d63f cdd4 307e 5926 bdbf
00000460: 7361 e683 5c3c c43f 641e 1985 7dc1 c93f
00000470: 8385 4a6d d7d9 b7bf 5def 4828 e747 a03f
00000480: 1352 40f5 9be0 a43f 4712 99bf cddc a43f
00000490: cad9 ba74 8640 c5bf 2e7b 1ac5 9db5 c9bf
000004a0: 8425 15f9 7d0e c1bf e518 7cf8 e8bf 83bf
000004b0: 0c0d 49fa 8533 c5bf 10ef 2df7 9a80 d1bf
000004c0: 1771 c5d9 0095 c33f 1f3d 0ebc 7caf c0bf
000004d0: 66b9 d33e ea3a d4bf 1051 6f37 5005 99bf
000004e0: 8dfb aab1 7e4f c83f e30a e168 4177 d2bf
000004f0: 75bf e6c7 24bb 65bf 9172 107e 18dc c4bf
00000500: 5dec dfc0 6be7 7fbf 70ad 5ee6 ecff cabf
00000510: 49e3 3631 0767 adbf 68c3 dbf9 fa0d b4bf
00000520: 9efb 8e42 1089 c6bf 52d1 daff d556 d03f
00000530: c499 511d 2d66 cdbf 040a 62a3 95f8 b8bf
00000540: d725 ce4a a533 c5bf 52f6 37ce 8052 b8bf
00000550: 2820 3ab6 aa8b 3bbf 6da2 3e82 8f9d b63f
00000560: 75bc 622a 0228 b2bf 89f4 d9c4 4feb c5bf
00000570: 1cb2 bf55 de87 c33f c73d 77bd 8772 c6bf
00000580: 6b8b c95c 36b5 a73f 6748 c1ff 09ca c3bf
00000590: edc1 2c08 9c90 b03f d69c d551 c761 c8bf
000005a0: 3172 02ab cd39 cb3f 6a88 cbc8 c16d dcbf
000005b0: 63aa 2395 6795 d63f 9b55 8263 2142 cebf
000005c0: 6aeb 1e68 8db6 d3bf 6909 93bb c509 c23f
000005d0: b578 94b0 1f9d a6bf 38c1 4a31 0ff5 c43f
000005e0: 8d44 b6b7 d797 c1bf f046 79e6 abdc d13f
000005f0: 9526 ccde 1f5c cc3f 1493 07b2 5e88 c83f
00000600: 890d c612 d117 c2bf 1962 bc3d dca7 d13f
00000610: 0319 a4ad 3da9 ce3f cefa 3a64 6983 903f
00000620: a7df d25d 1981 acbf 7270 72ad ae99 c53f
00000630: 03bd 639e 4e73 ad3f 7b51 efb4 7bb2 b93f
00000640: ca1c 34ba d2b5 80bf c39c ed80 d550 babf
00000650: b753 6542 4b3d cabf c5f2 41d9 c9ae c1bf
00000660: 31e3 2407 2b4d b33f 528e f42d 5717 c2bf
00000670: e982 4426 0d1f cd3f 538a f030 0661 a33f
00000680: 45ca c481 1273 c7bf 0cc5 f41f 31fb d13f
00000690: 62cc c97c b1df b2bf cb6c aab1 889b 8bbf
000006a0: 4c27 8d34 a98d c7bf e03f d435 e636 963f
000006b0: 5821 2784 4b1c cdbf 76aa 7539 0202 973f
000006c0: af18 6623 f753 9bbf 68a0 0e26 46ad ddbf
000006d0: 4ba3 1bf5 5947 c2bf 3ce1 ce98 9172 c1bf
000006e0: b1bd 308b ae70 d43f 747c 0d1a bc05 db3f
000006f0: bbdf 5bcb 172a b7bf 91af 7415 73f4 c63f
00000700: 9577 a676 c9aa 863f 3131 445a d17d 993f
00000710: 65ed f9bc 8640 d0bf c0e7 e837 b593 633f
00000720: 5d18 979e 9c5a abbf e114 5779 9f10 d53f
00000730: 2b10 2716 e110 d83f 47b4 3db5 fc97 d53f
00000740: cc26 84cd d482 c93f 24bb da52 070f c43f
00000750: 8cec da35 c6d6 e23f b24d 8d33 e05b c33f
00000760: 9705 a22a 6757 dcbf 0ee5 53f2 4f8d d0bf
00000770: aab2 382d 0b85 d03f b262 9313 3f04 ca3f
00000780: 5bda 1552 707a c53f fc8a dd22 0d2f 6d3f
00000790: dfa3 0b22 5f14 ce3f f328 bcf6 efe4 c93f
000007a0: 6075 4f37 b11a ac3f 664f 2b8f 094c c1bf
000007b0: b305 1e0f 60d0 b3bf 353c b0db 6bc3 cdbf
000007c0: 4998 f4ee 9be5 cf3f fc27 29a3 c267 a83f
000007d0: 17ab ea39 ffe1 ab3f 49df 388e 9d35 b13f
000007e0: cd21 226f 24e6 cc3f 3fd9 f659 c331 d2bf
000007f0: 2db7 030e 2bed cabf de4b e296 e849 d13f
