w3_10000.npy (npy, 10320 bytes, 1 tensors)

array f8 [5, 256]
0.032676471295632566 -0.041607042802093576 0.1060734677241294 0.043975481397227366 0.045153932626700845 -0.0063879434953118645 -0.004982383042051524 0.04788872690361882
-0.06031385896745194 0.038812686297517635 0.12851038477383886 -0.04616475111321627 0.11523375774692475 0.029846619227287242 0.044998085819584165 0.013650390075732686
-0.06521530058987006 0.002687423591948226 -0.011264270186225556 -0.1050257223847269 -0.03347126963379311 -0.06270438124043054 0.03256383327560238 0.017965489347304162
0.051446053391808105 0.08064420955277349 0.014610948356860384 -0.01405076306856186 0.05478676182896459 -0.05759401926401779 0.01253870663178965 -0.027562891793116814
0.013025868443816367 0.003167649164079445 -0.03156437369569137 -0.07286044428971303 0.12070124787482431 -0.021800527968640657 0.009641882268437141 0.022345218923367216
-0.022881992350014604 0.024804047592250453 -0.05036363749711066 -0.06842300981165997 0.004619506893201086 0.11227208878980185 0.05988383185207522 0.06088879673816317
0.033235850496643404 0.09990801588388003 0.08099327310641763 0.06447248046344942 -0.0014614232788578985 0.00495039102678458 -0.04452545991290633 0.13389310718788694
0.12830615463695474 0.04147449600959483 -0.018388344895060287 0.13483518273217213 -0.005377194805702259 0.028699075485568683 0.0813886061930075 0.06250266833517051
0.057285179080158226 -0.03310269498679609 -0.071722682128023 0.08173131011750762 -0.10225444896174585 0.0018801600180947905 0.012314891571228642 0.10028154369762955
-0.00032123662591724026 0.020824440255441154 0.1590519255876547 0.09325352496320846 0.016983039554667578 0.07112392231576817 0.034597649126824156 -0.004897760956426341
-0.027966105895099274 0.026076541539056676 0.06816460573047298 0.031842458555101025 0.15786467783679436 0.06747222222298171 0.006130405724204178 -0.001796848206334824
-0.06311082467150343 0.02824260517310838 -0.009190594880051781 0.0043397602740329515 0.03832627216019781 0.014833163209111672 -0.010894287850835217 -0.05868256075569745
0.08776595440110796 0.0518702481875933 0.0038632959658415956 -0.15369898505670546 0.0021478184610950737 -0.0672282071592349 0.01758480941821206 -0.10000620344426878
-0.00698777941848134 -0.03877435740174508 0.08233913132457393 -0.16275519219336196 -0.030336022862968708 0.07671129694192017 -0.02719594691735748 0.0026140632692715055
-0.015738252387952786 0.09438439205469716 0.057573835791846134 0.021121705149479225 0.09664556221654838 0.10647764637340795 0.04596174278726718 0.016083648269440795
-0.017176122587863326 0.023562995973204177 0.019318442217287176 -0.001846301150868629 -0.052165439313195165 -0.007850718508658809 -0.07216436180833002 0.09006391834811903
0.04902896814948085 0.08693450182994174 -0.05829560602202717 0.061852186821289214 0.031221108239026955 0.021324619766071837 -0.07557457857136672 0.05426712058670278
-0.09590987977102301 0.06564391480854492 0.01741905662618054 -0.060957965434003426 -0.005232695839640913 -0.029946572525901237 -0.005100946034466085 -0.02193910135915008
-0.03008333756846039 0.054987448219088804 0.011973986190783329 0.07464002508331063 0.016967733486282492 -0.018462443181400893 0.06291175331587727 -0.011890058687670778
0.07834060732972929 -0.1198943928449917 -0.05098594927592529 -0.11876721451036092 -0.02565357290658144 0.08138199530319011 0.032922517952490675 0.02370898508871348
-0.037128101346852876 -0.04367501235710625 -0.10233388951913185 -0.05849754915575474 0.01023663670622376 0.04030929653928952 0.029253737759737036 -0.0317799436833515
0.05624099618643244 -0.05860570776527074 -0.07535315274041564 0.031370529347438 -0.07917890300834818 -0.023436701426612708 0.06902670603682179 0.034343903276104426
-0.036518659552308826 -0.044705823724646446 0.017806922220138834 -0.08044725189871031 -0.007460406871271204 -0.019108632633775016 0.16175357450335862 0.007896835769776567
-0.04534220303376272 0.0951819770401794 -0.02099570998238695 0.030989361519666418 -0.03376942865828538 0.05788830800948745 -0.11250230333239676 0.01643039920845693
0.0018119459350614962 0.0034806126497889983 0.09264499658530082 0.02745654168531128 0.018993910351580625 -0.024364643865529716 -0.022101516298925997 0.008431609774690808
-0.049481341663438864 -0.08841857996070716 0.046048986967156605 -0.07689309756416411 0.03104119180441764 -0.020690865921207738 0.0749982423408573 -0.05557512970250948
-0.0014486554974838886 -0.03393761975534861 0.05126824162176177 0.03510821792024266 0.040772027537701344 0.07985169070236241 -0.037111288248544434 -0.02707066958319503
0.022695328756330485 0.02514077092331874 -0.06649976902857317 -0.03785683447205356 -0.04740155811708187 0.13672095004991017 -0.02229738881891442 0.01105775146072958
-0.05775387763106227 0.010064023765841068 -0.09141746369606794 -0.009213304381591958 -0.07458841630714445 0.042199798554740556 -0.024984867344004392 0.11287547643708434
0.08313824167098138 0.09110096441350879 -0.0027997605718336227 0.021414519394742863 -0.1661416550495143 0.021548594637997683 -0.023445431022161473 0.14474284475029928
-0.012619711669764706 -0.059039166031521685 -0.017455051009540156 0.05102060670987012 -0.04599841089946701 -0.04108993903454417 -0.07516396369094881 -0.10582519152787676
0.029783159507371246 0.0015074342717944769 -0.049486271523703246 0.072956736837844 0.08856461783570456 -0.02453429840875615 -0.014695911481936066 -0.0009926352659627455
00000000: 3179 206f f8ba a03f 1d8d 3cb0 844d a5bf
00000010: d833 d97a a127 bb3f eb98 da4c f483 a63f
00000020: 4dbe d58f 6a1e a73f 4cbe 6a86 3e2a 7abf
00000030: 5250 8c43 6868 74bf 25d6 cb07 df84 a83f
00000040: a782 8547 75e1 aebf 8caf a2a4 41df a33f
00000050: de66 e63d 0773 c03f 8fbb 8400 e8a2 a7bf
00000060: 0511 eba4 f57f bd3f fad1 e8b5 1c90 9e3f
00000070: 1b97 f435 fd09 a73f d291 9f57 bcf4 8b3f
00000080: 1b78 3b2f f3b1 b0bf 6c69 038e ef03 663f
00000090: 0053 81c0 b811 87bf d494 e13a f7e2 babf
000000a0: 0290 dd70 2523 a1bf 485a bef2 640d b0bf
000000b0: bbf7 e6ed 34ac a03f e92f d094 8b65 923f
000000c0: b4f4 a619 2357 aa3f 2e14 a452 19a5 b43f
000000d0: fe9e d94a 58ec 8d3f 2913 e87e a5c6 8cbf
000000e0: 2148 9eac 020d ac3f f648 5e9a f67c adbf
000000f0: eb65 57b7 e4ad 893f 8ca7 565b 7239 9cbf
00000100: 3fda be77 4ead 8a3f 4ed9 13b2 0af3 693f
00000110: 58c2 7ba1 3429 a0bf 0677 6569 fba6 b2bf
00000120: 4a71 35e8 46e6 be3f 89b4 a4aa e052 96bf
00000130: da59 1e88 1fbf 833f 30c5 fd41 aae1 963f
00000140: 1417 3e83 606e 97bf cc5a de74 3b66 993f
00000150: 4a56 ea3f 43c9 a9bf fa59 6f9d 2b84 b1bf
00000160: d9a7 7a70 e7eb 723f 2e16 9b15 ddbd bc3f
00000170: 6d47 baf6 17a9 ae3f b1cc 5dfd d02c af3f
00000180: 182b e015 4a04 a13f fb5a d45c 9293 b93f
00000190: b424 30a3 f9bb b43f a61f 15bb 4481 b03f
000001a0: 003c 0d4c a7f1 57bf 48cd ff78 dc46 743f
000001b0: 1da1 5484 0acc a6bf ec11 44ca 6823 c13f
000001c0: 5547 0509 566c c03f cd65 f527 253c a53f
000001d0: 6bb2 ceef 64d4 92bf 99a9 177e 4742 c13f
000001e0: 43fb 5abd 6506 76bf 3737 8b5a 4a63 9d3f
000001f0: 8ab1 dd39 e2d5 b43f fa8b 69c4 2c00 b03f
00000200: 97ba 63a5 7b54 ad3f c268 c120 d6f2 a0bf
00000210: 0f0b 1fee 6a5c b2bf dc90 03d8 57ec b43f
00000220: 6044 29fa 582d babf 6a62 7e72 f6cd 5e3f
00000230: b0ee 6ac4 8c38 893f e9de 921e 0dac b93f
00000240: 38aa 76cd 740d 35bf fc22 6b87 0053 953f
00000250: 0de5 6141 d05b c43f ae25 f487 76df b73f
00000260: d358 e57d 0064 913f 5a39 4f68 2d35 b23f
00000270: 8e50 0977 c8b6 a13f 6f87 1ab2 ac0f 74bf
00000280: 3b1b dd98 25a3 9cbf ba81 6914 cfb3 9a3f
00000290: ee6b 5b50 3c73 b13f 2e9e 3c9c a74d a03f
000002a0: 7455 40e6 e834 c43f fc0d d60b dc45 b13f
000002b0: e4f3 8b41 321c 793f 6eab 0d12 8770 5dbf
000002c0: b9d9 fcef 0728 b0bf bc13 4a26 a1eb 9c3f
000002d0: 325d 86c3 84d2 82bf 15f4 3087 91c6 713f
000002e0: e2e3 024b 809f a33f 8af0 0877 d960 8e3f
000002f0: 34a8 4290 be4f 86bf 311f 95fe a30b aebf
00000300: 5ce0 da5f d477 b63f 8bc5 33b7 bc8e aa3f
00000310: 4d74 7f3a eba5 6f3f d19b 1f89 68ac c3bf
00000320: 7e6e 8a41 4d98 613f cd1c 1e27 de35 b1bf
00000330: 4132 6e95 c001 923f aeb4 30ad 019a b9bf
00000340: c943 2fc1 379f 7cbf b285 ed89 3bda a3bf
00000350: 1858 3864 2d14 b53f 73c2 dc81 29d5 c4bf
00000360: 2e40 5908 6810 9fbf 326b 99ff 59a3 b33f
00000370: bc0d 601a 41d9 9bbf 1bcc 0988 166a 653f
00000380: bfb5 353d b01d 90bf 4fb5 2055 9329 b83f
00000390: 0c9a a95b 517a ad3f 083c 69a3 eda0 953f
000003a0: 360b 0679 c3bd b83f 78c8 ed78 1e42 bb3f
000003b0: 62e6 462c 4c88 a73f ec3c 455d 3b78 903f
000003c0: cfd8 2513 9e96 91bf b51b 67e4 e520 983f
000003d0: 3fb4 21b6 36c8 933f b466 f0c3 f23f 5ebf
000003e0: 7fcd a9af 6db5 aabf 3c55 f599 0914 80bf
000003f0: 0c4b e715 5d79 b2bf 3ad3 dacf 6d0e b73f
00000400: 3c6d 842d 531a a93f 55ef 40ea 5641 b63f
00000410: 5aef baf2 ebd8 adbf 0dc3 2aff 16ab af3f
00000420: ee73 531b 6df8 9f3f a9ca fa01 1fd6 953f
00000430: 177d 5f07 db58 b3bf 0d01 5668 e6c8 ab3f
00000440: 85d6 fac4 8c8d b8bf 78bb 4823 0ace b03f
00000450: 107f 251a 4dd6 913f 2d82 f0e7 e135 afbf
00000460: f6cd 0418 e16e 75bf 1610 8176 50aa 9ebf
00000470: 78da 58c6 bae4 74bf f65d 5d2b 3477 96bf
00000480: c454 0b9c 2ace 9ebf d93c 9597 5027 ac3f
00000490: a2c3 bc38 d185 883f a497 b4d2 9b1b b33f
000004a0: eeaf a451 fd5f 913f 816a ac96 d1e7 92bf
000004b0: 1795 0613 fc1a b03f b943 b0a9 d059 88bf
000004c0: 3312 6e4a 210e b43f 4836 3e20 66b1 bebf
000004d0: 8527 6491 d41a aabf 53b5 2836 8767 bebf
000004e0: 8224 a322 ee44 9abf 2778 4f50 73d5 b43f
000004f0: efda d063 38db a03f ab3b 4f0e 2b47 983f
00000500: 9438 185a 7402 a3bf 31cc 733b 925c a6bf
00000510: 7bd4 c1c4 8d32 babf 0a4d 0a09 64f3 adbf
00000520: 3c7e fe1e f2f6 843f e3d6 b88c 6ba3 a43f
00000530: 7bf6 da1b b1f4 9d3f a5d2 93f5 7545 a0bf
00000540: 5460 a1ae 9ecb ac3f 30ea 6b3c 9101 aebf
00000550: ffaa ab1e 584a b3bf 20fe 354b cc0f a03f
00000560: 183a f48e 1145 b4bf a419 9d68 caff 97bf
00000570: b68f faf4 bbab b13f 0895 c62a 8695 a13f
00000580: 011d f1e0 92b2 a2bf 1a1b ad85 aee3 a6bf
00000590: 2ac8 4f52 fa3b 923f c341 f5eb 3098 b4bf
000005a0: 4871 6eb8 cd8e 7ebf 37f1 eea0 3691 93bf
000005b0: 1d63 4054 57b4 c43f e00d fc5a 372c 803f
000005c0: 6534 51de 1737 a7bf b162 8e96 d85d b83f
000005d0: 3830 ec3e e67f 95bf d1e8 00d9 acbb 9f3f
000005e0: 1346 62ff 394a a1bf 866b 714b 89a3 ad3f
000005f0: 898d 8971 f3cc bcbf c8cc 0a6d 21d3 903f
00000600: c219 2022 daaf 5d3f 8945 07b0 5f83 6c3f
00000610: 5ace 781e 95b7 b73f 9810 6652 911d 9c3f
00000620: c7fd 21bf 2373 933f 9e15 5392 0bf3 98bf
00000630: 8499 c8a6 c7a1 96bf 7a23 e181 9744 813f
00000640: efd0 6950 9e55 a9bf 533d 4a9d 99a2 b6bf
00000650: 6a63 139a bb93 a73f 4b83 531b 44af b3bf
00000660: d8ed 831e 43c9 9f3f 047d d481 fc2f 95bf
00000670: f188 1cb6 1533 b33f 1623 16e9 5774 acbf
00000680: a502 08ff 19bc 57bf b317 e88d 4560 a1bf
00000690: 5c83 2dba d43f aa3f e099 934f b4f9 a13f
000006a0: 6c69 bb39 12e0 a43f f7d1 1810 2971 b43f
000006b0: f90a ae32 4000 a3bf bd9e 29e2 69b8 9bbf
000006c0: 3823 1fbb 713d 973f 52c4 a593 80be 993f
000006d0: a355 2bfd 2006 b1bf dfa0 f993 f861 a3bf
000006e0: dadc c85b 0445 a8bf 9d3a 9274 1280 c13f
000006f0: 83c1 0d6f 20d5 96bf a608 2147 72a5 863f
00000700: a802 498f ea91 adbf d30c 8667 729c 843f
00000710: f79d db88 2267 b7bf 4066 0ec8 6cde 82bf
00000720: 331a b3f8 3918 b3bf f27b 6145 369b a53f
00000730: ddb1 8c10 a295 99bf 8454 d13f 68e5 bc3f
00000740: 6018 063d 8c48 b53f b042 ca8e 6452 b73f
00000750: 0509 f702 86ef 66bf 8e04 d711 b0ed 953f
00000760: f171 7837 2144 c5bf 0fd7 fab4 d510 963f
00000770: c558 ec3d 1402 98bf 4b2a 44fc ee86 c23f
00000780: b7b1 4007 5dd8 89bf 3db6 93ae 613a aebf
00000790: 83a6 f1a4 bcdf 91bf 7660 7b7a 5f1f aa3f
000007a0: 535d f68c 1a8d a7bf 312d b290 bd09 a5bf
000007b0: 69ee e30d f23d b3bf d285 b418 5c17 bbbf
000007c0: 4c0c 3900 7a7f 9e3f 7c8c 7c39 a3b2 583f
000007d0: 242f 97bb 4356 a9bf 99cd bdee 4aad b23f
000007e0: 17e5 2fb9 2bac b63f b003 2fe5 841f 99bf
000007f0: 883e 99d9 e318 8ebf 8942 4400 6a43 50bf
